# Model: densenet121
# Dataset: cifardecem
# Batch size: 128
# Freezeout: False
# Low precision: True
# Epochs: 90
# Initial learning rate: 0.1
# module_name: models_cifardecem.densenet
<function densenet121 at 0x7f714179af28>
# model requested: 'densenet121'
# printing out the model
DenseNet(
  (conv1): Conv2d(3, 64, kernel_size=(3, 3), stride=(1, 1), padding=(1, 1), bias=False)
  (features): Sequential(
    (dense_block_layer_0): Sequential(
      (bottle_neck_layer_0): Bottleneck(
        (bottle_neck): Sequential(
          (0): BatchNorm2d(64, eps=1e-05, momentum=0.1, affine=True, track_running_stats=True)
          (1): ReLU(inplace=True)
          (2): Conv2d(64, 128, kernel_size=(1, 1), stride=(1, 1), bias=False)
          (3): BatchNorm2d(128, eps=1e-05, momentum=0.1, affine=True, track_running_stats=True)
          (4): ReLU(inplace=True)
          (5): Conv2d(128, 32, kernel_size=(3, 3), stride=(1, 1), padding=(1, 1), bias=False)
        )
      )
      (bottle_neck_layer_1): Bottleneck(
        (bottle_neck): Sequential(
          (0): BatchNorm2d(96, eps=1e-05, momentum=0.1, affine=True, track_running_stats=True)
          (1): ReLU(inplace=True)
          (2): Conv2d(96, 128, kernel_size=(1, 1), stride=(1, 1), bias=False)
          (3): BatchNorm2d(128, eps=1e-05, momentum=0.1, affine=True, track_running_stats=True)
          (4): ReLU(inplace=True)
          (5): Conv2d(128, 32, kernel_size=(3, 3), stride=(1, 1), padding=(1, 1), bias=False)
        )
      )
      (bottle_neck_layer_2): Bottleneck(
        (bottle_neck): Sequential(
          (0): BatchNorm2d(128, eps=1e-05, momentum=0.1, affine=True, track_running_stats=True)
          (1): ReLU(inplace=True)
          (2): Conv2d(128, 128, kernel_size=(1, 1), stride=(1, 1), bias=False)
          (3): BatchNorm2d(128, eps=1e-05, momentum=0.1, affine=True, track_running_stats=True)
          (4): ReLU(inplace=True)
          (5): Conv2d(128, 32, kernel_size=(3, 3), stride=(1, 1), padding=(1, 1), bias=False)
        )
      )
      (bottle_neck_layer_3): Bottleneck(
        (bottle_neck): Sequential(
          (0): BatchNorm2d(160, eps=1e-05, momentum=0.1, affine=True, track_running_stats=True)
          (1): ReLU(inplace=True)
          (2): Conv2d(160, 128, kernel_size=(1, 1), stride=(1, 1), bias=False)
          (3): BatchNorm2d(128, eps=1e-05, momentum=0.1, affine=True, track_running_stats=True)
          (4): ReLU(inplace=True)
          (5): Conv2d(128, 32, kernel_size=(3, 3), stride=(1, 1), padding=(1, 1), bias=False)
        )
      )
      (bottle_neck_layer_4): Bottleneck(
        (bottle_neck): Sequential(
          (0): BatchNorm2d(192, eps=1e-05, momentum=0.1, affine=True, track_running_stats=True)
          (1): ReLU(inplace=True)
          (2): Conv2d(192, 128, kernel_size=(1, 1), stride=(1, 1), bias=False)
          (3): BatchNorm2d(128, eps=1e-05, momentum=0.1, affine=True, track_running_stats=True)
          (4): ReLU(inplace=True)
          (5): Conv2d(128, 32, kernel_size=(3, 3), stride=(1, 1), padding=(1, 1), bias=False)
        )
      )
      (bottle_neck_layer_5): Bottleneck(
        (bottle_neck): Sequential(
          (0): BatchNorm2d(224, eps=1e-05, momentum=0.1, affine=True, track_running_stats=True)
          (1): ReLU(inplace=True)
          (2): Conv2d(224, 128, kernel_size=(1, 1), stride=(1, 1), bias=False)
          (3): BatchNorm2d(128, eps=1e-05, momentum=0.1, affine=True, track_running_stats=True)
          (4): ReLU(inplace=True)
          (5): Conv2d(128, 32, kernel_size=(3, 3), stride=(1, 1), padding=(1, 1), bias=False)
        )
      )
    )
    (transition_layer_0): Transition(
      (down_sample): Sequential(
        (0): BatchNorm2d(256, eps=1e-05, momentum=0.1, affine=True, track_running_stats=True)
        (1): Conv2d(256, 128, kernel_size=(1, 1), stride=(1, 1), bias=False)
        (2): AvgPool2d(kernel_size=2, stride=2, padding=0)
      )
    )
    (dense_block_layer_1): Sequential(
      (bottle_neck_layer_0): Bottleneck(
        (bottle_neck): Sequential(
          (0): BatchNorm2d(128, eps=1e-05, momentum=0.1, affine=True, track_running_stats=True)
          (1): ReLU(inplace=True)
          (2): Conv2d(128, 128, kernel_size=(1, 1), stride=(1, 1), bias=False)
          (3): BatchNorm2d(128, eps=1e-05, momentum=0.1, affine=True, track_running_stats=True)
          (4): ReLU(inplace=True)
          (5): Conv2d(128, 32, kernel_size=(3, 3), stride=(1, 1), padding=(1, 1), bias=False)
        )
      )
      (bottle_neck_layer_1): Bottleneck(
        (bottle_neck): Sequential(
          (0): BatchNorm2d(160, eps=1e-05, momentum=0.1, affine=True, track_running_stats=True)
          (1): ReLU(inplace=True)
          (2): Conv2d(160, 128, kernel_size=(1, 1), stride=(1, 1), bias=False)
          (3): BatchNorm2d(128, eps=1e-05, momentum=0.1, affine=True, track_running_stats=True)
          (4): ReLU(inplace=True)
          (5): Conv2d(128, 32, kernel_size=(3, 3), stride=(1, 1), padding=(1, 1), bias=False)
        )
      )
      (bottle_neck_layer_2): Bottleneck(
        (bottle_neck): Sequential(
          (0): BatchNorm2d(192, eps=1e-05, momentum=0.1, affine=True, track_running_stats=True)
          (1): ReLU(inplace=True)
          (2): Conv2d(192, 128, kernel_size=(1, 1), stride=(1, 1), bias=False)
          (3): BatchNorm2d(128, eps=1e-05, momentum=0.1, affine=True, track_running_stats=True)
          (4): ReLU(inplace=True)
          (5): Conv2d(128, 32, kernel_size=(3, 3), stride=(1, 1), padding=(1, 1), bias=False)
        )
      )
      (bottle_neck_layer_3): Bottleneck(
        (bottle_neck): Sequential(
          (0): BatchNorm2d(224, eps=1e-05, momentum=0.1, affine=True, track_running_stats=True)
          (1): ReLU(inplace=True)
          (2): Conv2d(224, 128, kernel_size=(1, 1), stride=(1, 1), bias=False)
          (3): BatchNorm2d(128, eps=1e-05, momentum=0.1, affine=True, track_running_stats=True)
          (4): ReLU(inplace=True)
          (5): Conv2d(128, 32, kernel_size=(3, 3), stride=(1, 1), padding=(1, 1), bias=False)
        )
      )
      (bottle_neck_layer_4): Bottleneck(
        (bottle_neck): Sequential(
          (0): BatchNorm2d(256, eps=1e-05, momentum=0.1, affine=True, track_running_stats=True)
          (1): ReLU(inplace=True)
          (2): Conv2d(256, 128, kernel_size=(1, 1), stride=(1, 1), bias=False)
          (3): BatchNorm2d(128, eps=1e-05, momentum=0.1, affine=True, track_running_stats=True)
          (4): ReLU(inplace=True)
          (5): Conv2d(128, 32, kernel_size=(3, 3), stride=(1, 1), padding=(1, 1), bias=False)
        )
      )
      (bottle_neck_layer_5): Bottleneck(
        (bottle_neck): Sequential(
          (0): BatchNorm2d(288, eps=1e-05, momentum=0.1, affine=True, track_running_stats=True)
          (1): ReLU(inplace=True)
          (2): Conv2d(288, 128, kernel_size=(1, 1), stride=(1, 1), bias=False)
          (3): BatchNorm2d(128, eps=1e-05, momentum=0.1, affine=True, track_running_stats=True)
          (4): ReLU(inplace=True)
          (5): Conv2d(128, 32, kernel_size=(3, 3), stride=(1, 1), padding=(1, 1), bias=False)
        )
      )
      (bottle_neck_layer_6): Bottleneck(
        (bottle_neck): Sequential(
          (0): BatchNorm2d(320, eps=1e-05, momentum=0.1, affine=True, track_running_stats=True)
          (1): ReLU(inplace=True)
          (2): Conv2d(320, 128, kernel_size=(1, 1), stride=(1, 1), bias=False)
          (3): BatchNorm2d(128, eps=1e-05, momentum=0.1, affine=True, track_running_stats=True)
          (4): ReLU(inplace=True)
          (5): Conv2d(128, 32, kernel_size=(3, 3), stride=(1, 1), padding=(1, 1), bias=False)
        )
      )
      (bottle_neck_layer_7): Bottleneck(
        (bottle_neck): Sequential(
          (0): BatchNorm2d(352, eps=1e-05, momentum=0.1, affine=True, track_running_stats=True)
          (1): ReLU(inplace=True)
          (2): Conv2d(352, 128, kernel_size=(1, 1), stride=(1, 1), bias=False)
          (3): BatchNorm2d(128, eps=1e-05, momentum=0.1, affine=True, track_running_stats=True)
          (4): ReLU(inplace=True)
          (5): Conv2d(128, 32, kernel_size=(3, 3), stride=(1, 1), padding=(1, 1), bias=False)
        )
      )
      (bottle_neck_layer_8): Bottleneck(
        (bottle_neck): Sequential(
          (0): BatchNorm2d(384, eps=1e-05, momentum=0.1, affine=True, track_running_stats=True)
          (1): ReLU(inplace=True)
          (2): Conv2d(384, 128, kernel_size=(1, 1), stride=(1, 1), bias=False)
          (3): BatchNorm2d(128, eps=1e-05, momentum=0.1, affine=True, track_running_stats=True)
          (4): ReLU(inplace=True)
          (5): Conv2d(128, 32, kernel_size=(3, 3), stride=(1, 1), padding=(1, 1), bias=False)
        )
      )
      (bottle_neck_layer_9): Bottleneck(
        (bottle_neck): Sequential(
          (0): BatchNorm2d(416, eps=1e-05, momentum=0.1, affine=True, track_running_stats=True)
          (1): ReLU(inplace=True)
          (2): Conv2d(416, 128, kernel_size=(1, 1), stride=(1, 1), bias=False)
          (3): BatchNorm2d(128, eps=1e-05, momentum=0.1, affine=True, track_running_stats=True)
          (4): ReLU(inplace=True)
          (5): Conv2d(128, 32, kernel_size=(3, 3), stride=(1, 1), padding=(1, 1), bias=False)
        )
      )
      (bottle_neck_layer_10): Bottleneck(
        (bottle_neck): Sequential(
          (0): BatchNorm2d(448, eps=1e-05, momentum=0.1, affine=True, track_running_stats=True)
          (1): ReLU(inplace=True)
          (2): Conv2d(448, 128, kernel_size=(1, 1), stride=(1, 1), bias=False)
          (3): BatchNorm2d(128, eps=1e-05, momentum=0.1, affine=True, track_running_stats=True)
          (4): ReLU(inplace=True)
          (5): Conv2d(128, 32, kernel_size=(3, 3), stride=(1, 1), padding=(1, 1), bias=False)
        )
      )
      (bottle_neck_layer_11): Bottleneck(
        (bottle_neck): Sequential(
          (0): BatchNorm2d(480, eps=1e-05, momentum=0.1, affine=True, track_running_stats=True)
          (1): ReLU(inplace=True)
          (2): Conv2d(480, 128, kernel_size=(1, 1), stride=(1, 1), bias=False)
          (3): BatchNorm2d(128, eps=1e-05, momentum=0.1, affine=True, track_running_stats=True)
          (4): ReLU(inplace=True)
          (5): Conv2d(128, 32, kernel_size=(3, 3), stride=(1, 1), padding=(1, 1), bias=False)
        )
      )
    )
    (transition_layer_1): Transition(
      (down_sample): Sequential(
        (0): BatchNorm2d(512, eps=1e-05, momentum=0.1, affine=True, track_running_stats=True)
        (1): Conv2d(512, 256, kernel_size=(1, 1), stride=(1, 1), bias=False)
        (2): AvgPool2d(kernel_size=2, stride=2, padding=0)
      )
    )
    (dense_block_layer_2): Sequential(
      (bottle_neck_layer_0): Bottleneck(
        (bottle_neck): Sequential(
          (0): BatchNorm2d(256, eps=1e-05, momentum=0.1, affine=True, track_running_stats=True)
          (1): ReLU(inplace=True)
          (2): Conv2d(256, 128, kernel_size=(1, 1), stride=(1, 1), bias=False)
          (3): BatchNorm2d(128, eps=1e-05, momentum=0.1, affine=True, track_running_stats=True)
          (4): ReLU(inplace=True)
          (5): Conv2d(128, 32, kernel_size=(3, 3), stride=(1, 1), padding=(1, 1), bias=False)
        )
      )
      (bottle_neck_layer_1): Bottleneck(
        (bottle_neck): Sequential(
          (0): BatchNorm2d(288, eps=1e-05, momentum=0.1, affine=True, track_running_stats=True)
          (1): ReLU(inplace=True)
          (2): Conv2d(288, 128, kernel_size=(1, 1), stride=(1, 1), bias=False)
          (3): BatchNorm2d(128, eps=1e-05, momentum=0.1, affine=True, track_running_stats=True)
          (4): ReLU(inplace=True)
          (5): Conv2d(128, 32, kernel_size=(3, 3), stride=(1, 1), padding=(1, 1), bias=False)
        )
      )
      (bottle_neck_layer_2): Bottleneck(
        (bottle_neck): Sequential(
          (0): BatchNorm2d(320, eps=1e-05, momentum=0.1, affine=True, track_running_stats=True)
          (1): ReLU(inplace=True)
          (2): Conv2d(320, 128, kernel_size=(1, 1), stride=(1, 1), bias=False)
          (3): BatchNorm2d(128, eps=1e-05, momentum=0.1, affine=True, track_running_stats=True)
          (4): ReLU(inplace=True)
          (5): Conv2d(128, 32, kernel_size=(3, 3), stride=(1, 1), padding=(1, 1), bias=False)
        )
      )
      (bottle_neck_layer_3): Bottleneck(
        (bottle_neck): Sequential(
          (0): BatchNorm2d(352, eps=1e-05, momentum=0.1, affine=True, track_running_stats=True)
          (1): ReLU(inplace=True)
          (2): Conv2d(352, 128, kernel_size=(1, 1), stride=(1, 1), bias=False)
          (3): BatchNorm2d(128, eps=1e-05, momentum=0.1, affine=True, track_running_stats=True)
          (4): ReLU(inplace=True)
          (5): Conv2d(128, 32, kernel_size=(3, 3), stride=(1, 1), padding=(1, 1), bias=False)
        )
      )
      (bottle_neck_layer_4): Bottleneck(
        (bottle_neck): Sequential(
          (0): BatchNorm2d(384, eps=1e-05, momentum=0.1, affine=True, track_running_stats=True)
          (1): ReLU(inplace=True)
          (2): Conv2d(384, 128, kernel_size=(1, 1), stride=(1, 1), bias=False)
          (3): BatchNorm2d(128, eps=1e-05, momentum=0.1, affine=True, track_running_stats=True)
          (4): ReLU(inplace=True)
          (5): Conv2d(128, 32, kernel_size=(3, 3), stride=(1, 1), padding=(1, 1), bias=False)
        )
      )
      (bottle_neck_layer_5): Bottleneck(
        (bottle_neck): Sequential(
          (0): BatchNorm2d(416, eps=1e-05, momentum=0.1, affine=True, track_running_stats=True)
          (1): ReLU(inplace=True)
          (2): Conv2d(416, 128, kernel_size=(1, 1), stride=(1, 1), bias=False)
          (3): BatchNorm2d(128, eps=1e-05, momentum=0.1, affine=True, track_running_stats=True)
          (4): ReLU(inplace=True)
          (5): Conv2d(128, 32, kernel_size=(3, 3), stride=(1, 1), padding=(1, 1), bias=False)
        )
      )
      (bottle_neck_layer_6): Bottleneck(
        (bottle_neck): Sequential(
          (0): BatchNorm2d(448, eps=1e-05, momentum=0.1, affine=True, track_running_stats=True)
          (1): ReLU(inplace=True)
          (2): Conv2d(448, 128, kernel_size=(1, 1), stride=(1, 1), bias=False)
          (3): BatchNorm2d(128, eps=1e-05, momentum=0.1, affine=True, track_running_stats=True)
          (4): ReLU(inplace=True)
          (5): Conv2d(128, 32, kernel_size=(3, 3), stride=(1, 1), padding=(1, 1), bias=False)
        )
      )
      (bottle_neck_layer_7): Bottleneck(
        (bottle_neck): Sequential(
          (0): BatchNorm2d(480, eps=1e-05, momentum=0.1, affine=True, track_running_stats=True)
          (1): ReLU(inplace=True)
          (2): Conv2d(480, 128, kernel_size=(1, 1), stride=(1, 1), bias=False)
          (3): BatchNorm2d(128, eps=1e-05, momentum=0.1, affine=True, track_running_stats=True)
          (4): ReLU(inplace=True)
          (5): Conv2d(128, 32, kernel_size=(3, 3), stride=(1, 1), padding=(1, 1), bias=False)
        )
      )
      (bottle_neck_layer_8): Bottleneck(
        (bottle_neck): Sequential(
          (0): BatchNorm2d(512, eps=1e-05, momentum=0.1, affine=True, track_running_stats=True)
          (1): ReLU(inplace=True)
          (2): Conv2d(512, 128, kernel_size=(1, 1), stride=(1, 1), bias=False)
          (3): BatchNorm2d(128, eps=1e-05, momentum=0.1, affine=True, track_running_stats=True)
          (4): ReLU(inplace=True)
          (5): Conv2d(128, 32, kernel_size=(3, 3), stride=(1, 1), padding=(1, 1), bias=False)
        )
      )
      (bottle_neck_layer_9): Bottleneck(
        (bottle_neck): Sequential(
          (0): BatchNorm2d(544, eps=1e-05, momentum=0.1, affine=True, track_running_stats=True)
          (1): ReLU(inplace=True)
          (2): Conv2d(544, 128, kernel_size=(1, 1), stride=(1, 1), bias=False)
          (3): BatchNorm2d(128, eps=1e-05, momentum=0.1, affine=True, track_running_stats=True)
          (4): ReLU(inplace=True)
          (5): Conv2d(128, 32, kernel_size=(3, 3), stride=(1, 1), padding=(1, 1), bias=False)
        )
      )
      (bottle_neck_layer_10): Bottleneck(
        (bottle_neck): Sequential(
          (0): BatchNorm2d(576, eps=1e-05, momentum=0.1, affine=True, track_running_stats=True)
          (1): ReLU(inplace=True)
          (2): Conv2d(576, 128, kernel_size=(1, 1), stride=(1, 1), bias=False)
          (3): BatchNorm2d(128, eps=1e-05, momentum=0.1, affine=True, track_running_stats=True)
          (4): ReLU(inplace=True)
          (5): Conv2d(128, 32, kernel_size=(3, 3), stride=(1, 1), padding=(1, 1), bias=False)
        )
      )
      (bottle_neck_layer_11): Bottleneck(
        (bottle_neck): Sequential(
          (0): BatchNorm2d(608, eps=1e-05, momentum=0.1, affine=True, track_running_stats=True)
          (1): ReLU(inplace=True)
          (2): Conv2d(608, 128, kernel_size=(1, 1), stride=(1, 1), bias=False)
          (3): BatchNorm2d(128, eps=1e-05, momentum=0.1, affine=True, track_running_stats=True)
          (4): ReLU(inplace=True)
          (5): Conv2d(128, 32, kernel_size=(3, 3), stride=(1, 1), padding=(1, 1), bias=False)
        )
      )
      (bottle_neck_layer_12): Bottleneck(
        (bottle_neck): Sequential(
          (0): BatchNorm2d(640, eps=1e-05, momentum=0.1, affine=True, track_running_stats=True)
          (1): ReLU(inplace=True)
          (2): Conv2d(640, 128, kernel_size=(1, 1), stride=(1, 1), bias=False)
          (3): BatchNorm2d(128, eps=1e-05, momentum=0.1, affine=True, track_running_stats=True)
          (4): ReLU(inplace=True)
          (5): Conv2d(128, 32, kernel_size=(3, 3), stride=(1, 1), padding=(1, 1), bias=False)
        )
      )
      (bottle_neck_layer_13): Bottleneck(
        (bottle_neck): Sequential(
          (0): BatchNorm2d(672, eps=1e-05, momentum=0.1, affine=True, track_running_stats=True)
          (1): ReLU(inplace=True)
          (2): Conv2d(672, 128, kernel_size=(1, 1), stride=(1, 1), bias=False)
          (3): BatchNorm2d(128, eps=1e-05, momentum=0.1, affine=True, track_running_stats=True)
          (4): ReLU(inplace=True)
          (5): Conv2d(128, 32, kernel_size=(3, 3), stride=(1, 1), padding=(1, 1), bias=False)
        )
      )
      (bottle_neck_layer_14): Bottleneck(
        (bottle_neck): Sequential(
          (0): BatchNorm2d(704, eps=1e-05, momentum=0.1, affine=True, track_running_stats=True)
          (1): ReLU(inplace=True)
          (2): Conv2d(704, 128, kernel_size=(1, 1), stride=(1, 1), bias=False)
          (3): BatchNorm2d(128, eps=1e-05, momentum=0.1, affine=True, track_running_stats=True)
          (4): ReLU(inplace=True)
          (5): Conv2d(128, 32, kernel_size=(3, 3), stride=(1, 1), padding=(1, 1), bias=False)
        )
      )
      (bottle_neck_layer_15): Bottleneck(
        (bottle_neck): Sequential(
          (0): BatchNorm2d(736, eps=1e-05, momentum=0.1, affine=True, track_running_stats=True)
          (1): ReLU(inplace=True)
          (2): Conv2d(736, 128, kernel_size=(1, 1), stride=(1, 1), bias=False)
          (3): BatchNorm2d(128, eps=1e-05, momentum=0.1, affine=True, track_running_stats=True)
          (4): ReLU(inplace=True)
          (5): Conv2d(128, 32, kernel_size=(3, 3), stride=(1, 1), padding=(1, 1), bias=False)
        )
      )
      (bottle_neck_layer_16): Bottleneck(
        (bottle_neck): Sequential(
          (0): BatchNorm2d(768, eps=1e-05, momentum=0.1, affine=True, track_running_stats=True)
          (1): ReLU(inplace=True)
          (2): Conv2d(768, 128, kernel_size=(1, 1), stride=(1, 1), bias=False)
          (3): BatchNorm2d(128, eps=1e-05, momentum=0.1, affine=True, track_running_stats=True)
          (4): ReLU(inplace=True)
          (5): Conv2d(128, 32, kernel_size=(3, 3), stride=(1, 1), padding=(1, 1), bias=False)
        )
      )
      (bottle_neck_layer_17): Bottleneck(
        (bottle_neck): Sequential(
          (0): BatchNorm2d(800, eps=1e-05, momentum=0.1, affine=True, track_running_stats=True)
          (1): ReLU(inplace=True)
          (2): Conv2d(800, 128, kernel_size=(1, 1), stride=(1, 1), bias=False)
          (3): BatchNorm2d(128, eps=1e-05, momentum=0.1, affine=True, track_running_stats=True)
          (4): ReLU(inplace=True)
          (5): Conv2d(128, 32, kernel_size=(3, 3), stride=(1, 1), padding=(1, 1), bias=False)
        )
      )
      (bottle_neck_layer_18): Bottleneck(
        (bottle_neck): Sequential(
          (0): BatchNorm2d(832, eps=1e-05, momentum=0.1, affine=True, track_running_stats=True)
          (1): ReLU(inplace=True)
          (2): Conv2d(832, 128, kernel_size=(1, 1), stride=(1, 1), bias=False)
          (3): BatchNorm2d(128, eps=1e-05, momentum=0.1, affine=True, track_running_stats=True)
          (4): ReLU(inplace=True)
          (5): Conv2d(128, 32, kernel_size=(3, 3), stride=(1, 1), padding=(1, 1), bias=False)
        )
      )
      (bottle_neck_layer_19): Bottleneck(
        (bottle_neck): Sequential(
          (0): BatchNorm2d(864, eps=1e-05, momentum=0.1, affine=True, track_running_stats=True)
          (1): ReLU(inplace=True)
          (2): Conv2d(864, 128, kernel_size=(1, 1), stride=(1, 1), bias=False)
          (3): BatchNorm2d(128, eps=1e-05, momentum=0.1, affine=True, track_running_stats=True)
          (4): ReLU(inplace=True)
          (5): Conv2d(128, 32, kernel_size=(3, 3), stride=(1, 1), padding=(1, 1), bias=False)
        )
      )
      (bottle_neck_layer_20): Bottleneck(
        (bottle_neck): Sequential(
          (0): BatchNorm2d(896, eps=1e-05, momentum=0.1, affine=True, track_running_stats=True)
          (1): ReLU(inplace=True)
          (2): Conv2d(896, 128, kernel_size=(1, 1), stride=(1, 1), bias=False)
          (3): BatchNorm2d(128, eps=1e-05, momentum=0.1, affine=True, track_running_stats=True)
          (4): ReLU(inplace=True)
          (5): Conv2d(128, 32, kernel_size=(3, 3), stride=(1, 1), padding=(1, 1), bias=False)
        )
      )
      (bottle_neck_layer_21): Bottleneck(
        (bottle_neck): Sequential(
          (0): BatchNorm2d(928, eps=1e-05, momentum=0.1, affine=True, track_running_stats=True)
          (1): ReLU(inplace=True)
          (2): Conv2d(928, 128, kernel_size=(1, 1), stride=(1, 1), bias=False)
          (3): BatchNorm2d(128, eps=1e-05, momentum=0.1, affine=True, track_running_stats=True)
          (4): ReLU(inplace=True)
          (5): Conv2d(128, 32, kernel_size=(3, 3), stride=(1, 1), padding=(1, 1), bias=False)
        )
      )
      (bottle_neck_layer_22): Bottleneck(
        (bottle_neck): Sequential(
          (0): BatchNorm2d(960, eps=1e-05, momentum=0.1, affine=True, track_running_stats=True)
          (1): ReLU(inplace=True)
          (2): Conv2d(960, 128, kernel_size=(1, 1), stride=(1, 1), bias=False)
          (3): BatchNorm2d(128, eps=1e-05, momentum=0.1, affine=True, track_running_stats=True)
          (4): ReLU(inplace=True)
          (5): Conv2d(128, 32, kernel_size=(3, 3), stride=(1, 1), padding=(1, 1), bias=False)
        )
      )
      (bottle_neck_layer_23): Bottleneck(
        (bottle_neck): Sequential(
          (0): BatchNorm2d(992, eps=1e-05, momentum=0.1, affine=True, track_running_stats=True)
          (1): ReLU(inplace=True)
          (2): Conv2d(992, 128, kernel_size=(1, 1), stride=(1, 1), bias=False)
          (3): BatchNorm2d(128, eps=1e-05, momentum=0.1, affine=True, track_running_stats=True)
          (4): ReLU(inplace=True)
          (5): Conv2d(128, 32, kernel_size=(3, 3), stride=(1, 1), padding=(1, 1), bias=False)
        )
      )
    )
    (transition_layer_2): Transition(
      (down_sample): Sequential(
        (0): BatchNorm2d(1024, eps=1e-05, momentum=0.1, affine=True, track_running_stats=True)
        (1): Conv2d(1024, 512, kernel_size=(1, 1), stride=(1, 1), bias=False)
        (2): AvgPool2d(kernel_size=2, stride=2, padding=0)
      )
    )
    (dense_block3): Sequential(
      (bottle_neck_layer_0): Bottleneck(
        (bottle_neck): Sequential(
          (0): BatchNorm2d(512, eps=1e-05, momentum=0.1, affine=True, track_running_stats=True)
          (1): ReLU(inplace=True)
          (2): Conv2d(512, 128, kernel_size=(1, 1), stride=(1, 1), bias=False)
          (3): BatchNorm2d(128, eps=1e-05, momentum=0.1, affine=True, track_running_stats=True)
          (4): ReLU(inplace=True)
          (5): Conv2d(128, 32, kernel_size=(3, 3), stride=(1, 1), padding=(1, 1), bias=False)
        )
      )
      (bottle_neck_layer_1): Bottleneck(
        (bottle_neck): Sequential(
          (0): BatchNorm2d(544, eps=1e-05, momentum=0.1, affine=True, track_running_stats=True)
          (1): ReLU(inplace=True)
          (2): Conv2d(544, 128, kernel_size=(1, 1), stride=(1, 1), bias=False)
          (3): BatchNorm2d(128, eps=1e-05, momentum=0.1, affine=True, track_running_stats=True)
          (4): ReLU(inplace=True)
          (5): Conv2d(128, 32, kernel_size=(3, 3), stride=(1, 1), padding=(1, 1), bias=False)
        )
      )
      (bottle_neck_layer_2): Bottleneck(
        (bottle_neck): Sequential(
          (0): BatchNorm2d(576, eps=1e-05, momentum=0.1, affine=True, track_running_stats=True)
          (1): ReLU(inplace=True)
          (2): Conv2d(576, 128, kernel_size=(1, 1), stride=(1, 1), bias=False)
          (3): BatchNorm2d(128, eps=1e-05, momentum=0.1, affine=True, track_running_stats=True)
          (4): ReLU(inplace=True)
          (5): Conv2d(128, 32, kernel_size=(3, 3), stride=(1, 1), padding=(1, 1), bias=False)
        )
      )
      (bottle_neck_layer_3): Bottleneck(
        (bottle_neck): Sequential(
          (0): BatchNorm2d(608, eps=1e-05, momentum=0.1, affine=True, track_running_stats=True)
          (1): ReLU(inplace=True)
          (2): Conv2d(608, 128, kernel_size=(1, 1), stride=(1, 1), bias=False)
          (3): BatchNorm2d(128, eps=1e-05, momentum=0.1, affine=True, track_running_stats=True)
          (4): ReLU(inplace=True)
          (5): Conv2d(128, 32, kernel_size=(3, 3), stride=(1, 1), padding=(1, 1), bias=False)
        )
      )
      (bottle_neck_layer_4): Bottleneck(
        (bottle_neck): Sequential(
          (0): BatchNorm2d(640, eps=1e-05, momentum=0.1, affine=True, track_running_stats=True)
          (1): ReLU(inplace=True)
          (2): Conv2d(640, 128, kernel_size=(1, 1), stride=(1, 1), bias=False)
          (3): BatchNorm2d(128, eps=1e-05, momentum=0.1, affine=True, track_running_stats=True)
          (4): ReLU(inplace=True)
          (5): Conv2d(128, 32, kernel_size=(3, 3), stride=(1, 1), padding=(1, 1), bias=False)
        )
      )
      (bottle_neck_layer_5): Bottleneck(
        (bottle_neck): Sequential(
          (0): BatchNorm2d(672, eps=1e-05, momentum=0.1, affine=True, track_running_stats=True)
          (1): ReLU(inplace=True)
          (2): Conv2d(672, 128, kernel_size=(1, 1), stride=(1, 1), bias=False)
          (3): BatchNorm2d(128, eps=1e-05, momentum=0.1, affine=True, track_running_stats=True)
          (4): ReLU(inplace=True)
          (5): Conv2d(128, 32, kernel_size=(3, 3), stride=(1, 1), padding=(1, 1), bias=False)
        )
      )
      (bottle_neck_layer_6): Bottleneck(
        (bottle_neck): Sequential(
          (0): BatchNorm2d(704, eps=1e-05, momentum=0.1, affine=True, track_running_stats=True)
          (1): ReLU(inplace=True)
          (2): Conv2d(704, 128, kernel_size=(1, 1), stride=(1, 1), bias=False)
          (3): BatchNorm2d(128, eps=1e-05, momentum=0.1, affine=True, track_running_stats=True)
          (4): ReLU(inplace=True)
          (5): Conv2d(128, 32, kernel_size=(3, 3), stride=(1, 1), padding=(1, 1), bias=False)
        )
      )
      (bottle_neck_layer_7): Bottleneck(
        (bottle_neck): Sequential(
          (0): BatchNorm2d(736, eps=1e-05, momentum=0.1, affine=True, track_running_stats=True)
          (1): ReLU(inplace=True)
          (2): Conv2d(736, 128, kernel_size=(1, 1), stride=(1, 1), bias=False)
          (3): BatchNorm2d(128, eps=1e-05, momentum=0.1, affine=True, track_running_stats=True)
          (4): ReLU(inplace=True)
          (5): Conv2d(128, 32, kernel_size=(3, 3), stride=(1, 1), padding=(1, 1), bias=False)
        )
      )
      (bottle_neck_layer_8): Bottleneck(
        (bottle_neck): Sequential(
          (0): BatchNorm2d(768, eps=1e-05, momentum=0.1, affine=True, track_running_stats=True)
          (1): ReLU(inplace=True)
          (2): Conv2d(768, 128, kernel_size=(1, 1), stride=(1, 1), bias=False)
          (3): BatchNorm2d(128, eps=1e-05, momentum=0.1, affine=True, track_running_stats=True)
          (4): ReLU(inplace=True)
          (5): Conv2d(128, 32, kernel_size=(3, 3), stride=(1, 1), padding=(1, 1), bias=False)
        )
      )
      (bottle_neck_layer_9): Bottleneck(
        (bottle_neck): Sequential(
          (0): BatchNorm2d(800, eps=1e-05, momentum=0.1, affine=True, track_running_stats=True)
          (1): ReLU(inplace=True)
          (2): Conv2d(800, 128, kernel_size=(1, 1), stride=(1, 1), bias=False)
          (3): BatchNorm2d(128, eps=1e-05, momentum=0.1, affine=True, track_running_stats=True)
          (4): ReLU(inplace=True)
          (5): Conv2d(128, 32, kernel_size=(3, 3), stride=(1, 1), padding=(1, 1), bias=False)
        )
      )
      (bottle_neck_layer_10): Bottleneck(
        (bottle_neck): Sequential(
          (0): BatchNorm2d(832, eps=1e-05, momentum=0.1, affine=True, track_running_stats=True)
          (1): ReLU(inplace=True)
          (2): Conv2d(832, 128, kernel_size=(1, 1), stride=(1, 1), bias=False)
          (3): BatchNorm2d(128, eps=1e-05, momentum=0.1, affine=True, track_running_stats=True)
          (4): ReLU(inplace=True)
          (5): Conv2d(128, 32, kernel_size=(3, 3), stride=(1, 1), padding=(1, 1), bias=False)
        )
      )
      (bottle_neck_layer_11): Bottleneck(
        (bottle_neck): Sequential(
          (0): BatchNorm2d(864, eps=1e-05, momentum=0.1, affine=True, track_running_stats=True)
          (1): ReLU(inplace=True)
          (2): Conv2d(864, 128, kernel_size=(1, 1), stride=(1, 1), bias=False)
          (3): BatchNorm2d(128, eps=1e-05, momentum=0.1, affine=True, track_running_stats=True)
          (4): ReLU(inplace=True)
          (5): Conv2d(128, 32, kernel_size=(3, 3), stride=(1, 1), padding=(1, 1), bias=False)
        )
      )
      (bottle_neck_layer_12): Bottleneck(
        (bottle_neck): Sequential(
          (0): BatchNorm2d(896, eps=1e-05, momentum=0.1, affine=True, track_running_stats=True)
          (1): ReLU(inplace=True)
          (2): Conv2d(896, 128, kernel_size=(1, 1), stride=(1, 1), bias=False)
          (3): BatchNorm2d(128, eps=1e-05, momentum=0.1, affine=True, track_running_stats=True)
          (4): ReLU(inplace=True)
          (5): Conv2d(128, 32, kernel_size=(3, 3), stride=(1, 1), padding=(1, 1), bias=False)
        )
      )
      (bottle_neck_layer_13): Bottleneck(
        (bottle_neck): Sequential(
          (0): BatchNorm2d(928, eps=1e-05, momentum=0.1, affine=True, track_running_stats=True)
          (1): ReLU(inplace=True)
          (2): Conv2d(928, 128, kernel_size=(1, 1), stride=(1, 1), bias=False)
          (3): BatchNorm2d(128, eps=1e-05, momentum=0.1, affine=True, track_running_stats=True)
          (4): ReLU(inplace=True)
          (5): Conv2d(128, 32, kernel_size=(3, 3), stride=(1, 1), padding=(1, 1), bias=False)
        )
      )
      (bottle_neck_layer_14): Bottleneck(
        (bottle_neck): Sequential(
          (0): BatchNorm2d(960, eps=1e-05, momentum=0.1, affine=True, track_running_stats=True)
          (1): ReLU(inplace=True)
          (2): Conv2d(960, 128, kernel_size=(1, 1), stride=(1, 1), bias=False)
          (3): BatchNorm2d(128, eps=1e-05, momentum=0.1, affine=True, track_running_stats=True)
          (4): ReLU(inplace=True)
          (5): Conv2d(128, 32, kernel_size=(3, 3), stride=(1, 1), padding=(1, 1), bias=False)
        )
      )
      (bottle_neck_layer_15): Bottleneck(
        (bottle_neck): Sequential(
          (0): BatchNorm2d(992, eps=1e-05, momentum=0.1, affine=True, track_running_stats=True)
          (1): ReLU(inplace=True)
          (2): Conv2d(992, 128, kernel_size=(1, 1), stride=(1, 1), bias=False)
          (3): BatchNorm2d(128, eps=1e-05, momentum=0.1, affine=True, track_running_stats=True)
          (4): ReLU(inplace=True)
          (5): Conv2d(128, 32, kernel_size=(3, 3), stride=(1, 1), padding=(1, 1), bias=False)
        )
      )
    )
    (bn): BatchNorm2d(1024, eps=1e-05, momentum=0.1, affine=True, track_running_stats=True)
    (relu): ReLU(inplace=True)
  )
  (avgpool): AdaptiveAvgPool2d(output_size=(1, 1))
  (linear): Linear(in_features=1024, out_features=10, bias=True)
)
# model is low precision
# Model: densenet121
# Dataset: cifardecem
# Freezeout: False
# Low precision: True
# Initial learning rate: 0.1
# Criterion: CrossEntropyLoss()
# Optimizer: SGD
#	lr 0.1
#	momentum 0.9
#	dampening 0
#	weight_decay 0.0001
#	nesterov False
CIFAR10 loading and normalization
==> Preparing data..
# CIFAR10 / low precision
Files already downloaded and verified
…
